trained_models/revgrad.pt (torch, 90255 bytes, 8 tensors)

feature_extractor.0.weight f4 [10, 1, 5, 5]
00000000: 03e1 41bd 9454 9abc 899f cfbe 438b edbe
00000010: c473 53bf cb3d 163d 611c 003e 89a1 7bbc
00000020: cd51 a8be c7a3 18bf e707 df3c 96ef 043f
00000030: e787 0e3c 1020 a9bd b5c3 c3be d7da b6be
00000040: 62de 0cbc eb07 2d3e dbb1 e73d d9b4 7ebe
00000050: 2ab2 c93c 89c9 06be 9f7c c13d 09fb bf3e
00000060: 41b5 643d 8dd7 d73d 4006 a0bd 0048 40bc
00000070: 9ad9 9bbd 5748 86bd daf3 b6bc 73d1 44be
00000080: cda9 7cbc 4711 9cbd 6d68 21bd cd9f e4bc
00000090: 13cf 4abe e7f8 61bc 436d dcbd e79f 293c
000000a0: 376d e4bd 509e 003e 2f45 46be 8d9c ecbc
000000b0: bd6c 953d 1b3a 35be b733 89bd 607f aa3d
000000c0: eabc 18be cd05 b6bc a0e6 b4be e873 eb3e
000000d0: 4c6b 863c a109 593e 6019 e83b 942d 71bf
000000e0: be7b a7be ba66 45bf 5a60 bebe 7129 b4be
000000f0: 464f 6f3e e06e 883e 1840 94be 45c6 f7bd
00000100: b6a1 4b3e d9f7 7fbe ad95 e83d 7089 553e
00000110: b261 bc3d 2abb 0d3e 8e7e b6be 99bc 793e
00000120: 1af6 0f3e 822a 873e 69a8 fe3d d6bc 75be
00000130: 1336 ecbe a504 053e 9583 77be a524 fbbe
00000140: 5d2e b1bd 927f afbe e569 243e d51a 3abe
00000150: 856f 2dbc d4a5 0fbf 8ea6 213e d01f 1b3e
00000160: 38d2 4cbe 19ed b8bc b5aa febe 28f1 d73d
00000170: 8583 d03e f53a 94bf 2943 59be 2dc3 dd3c
00000180: 1451 b2be 0d90 4abe 6f9a 76bf a2f4 16be
00000190: c872 e43e 29d3 ccbe 5965 82bf a172 16bf
000001a0: 0b2b 083d f047 a83e 96e2 22bf bcc4 93be
000001b0: 2523 21bb 5a36 0b3e 9300 31be 490f bcbe
000001c0: 05c2 abbd e871 e9be 131f 213e 635b 3cbd
000001d0: 159e 9cbe c051 c5be 4d73 61be 15cf bd3d
000001e0: 5f9b 32be 6b1d eebd bbae b73d 134e 4a3e
000001f0: 144a a33e 4ba6 913e 5e42 3d3e a552 d5bd
00000200: 4884 7b3c 579e 073d 70e6 28bf 14b7 63be
00000210: 5808 54bc 4437 883d 0750 84bb b8c2 b8be
00000220: e1b4 79be e87c ca3e 4413 043f 862a 3a3e
00000230: b246 b1be 3f9d 9abe 4731 bbbd bc7e b23d
00000240: 514f 36be 5833 3dbe b869 a4be baa2 c6bc
00000250: 060f fb3d 570c df3d c01f 7dbe 0e31 c7bc
00000260: 92c7 d4bd a2f5 2f3d 3502 84bd 298b d0bc
00000270: 12e3 393e dd50 403e ca10 43be 93bc 93be
00000280: ef65 903e 56e7 5b3e f532 713e 1c2b b4bd
00000290: d8ee e3be bff2 1abe 24ba debd 0fd0 3b3e
000002a0: c35d c4bc d0d3 b0be bf6d 833c 4cb0 093e
000002b0: 9bd9 f4bc 9301 3fbe 5415 893d 45b0 0dbd
000002c0: 025d 1c3e ea7f aa3e a6d4 103e 7a3a 923d
000002d0: 53ca 8abe 5ac7 2b3e 39f6 8f3e 8a69 623e
000002e0: a0ad 573e 4123 e9bd 2268 3a3e ab32 9abe
000002f0: d6e2 26be 69ea 7bbe b8ac 9abe 0bdd 95be
00000300: 31bf 3ebf 0e19 71be 34f4 e7be 5b86 1cbf
00000310: 3251 debd d547 583e 713d 0f3f 7d3c b53d
00000320: 960f 703d 7653 2ebf 4021 9dbe f853 75be
00000330: 41f0 a13e 770d 89be 7353 4d3e e1d6 ad3e
00000340: 49e6 e9ba 6604 833e c7c6 97bd 4550 e73e
00000350: 2891 ec3e 6d0d 7abc 314a 6dbe 02c5 8a3d
00000360: 5fa4 8bbc 2463 01be a9d0 d9be 4d03 78be
00000370: 5c01 b83d 1393 a7bd 607d 71be 6f00 3e3e
00000380: 599d 8d3e 1b46 923e f0dc f0ba 0479 54be
00000390: 8c1c 893e e6bd 623e 0768 b43d 1b70 42be
000003a0: 8cb4 043e 6946 fa3d 8e2c cfbe 45bd 283e
000003b0: a69c 6abe d3d2 b63d ad77 043d 26fb abbe
000003c0: ed22 6fbd 03cc ce3c 9538 edbd 8343 cf3e
000003d0: 882e ec3e b06c 333c 3642 863e 613a 04be
000003e0: 738e 74be 3097 0dbe
-0.04733373 -0.018839158 -0.40551403 -0.4639531 -0.8259852 0.036680024 0.12510826 -0.015358337
-0.3287491 -0.59624904 0.027225448 0.5192808 0.008699394 -0.082580686 -0.3823525 -0.35713837
-0.008597942 0.16897552 0.1131322 -0.24873675 0.024621088 -0.13162817 0.09447598 0.37496212
0.05583692 0.1053916 -0.07813692 -0.011735916 -0.076098636 -0.065567665 -0.022333074 -0.19220524
-0.015421343 -0.07620483 -0.03940623 -0.02790823 -0.19805555 -0.013792253 -0.107630275 0.010353065
-0.111536436 0.12560391 -0.19362329 -0.028883243 0.07296131 -0.17697947 -0.06699317 0.08325076
-0.14915815 -0.022219563 -0.35332203 0.45986867 0.016408585 0.2119508 0.007083103 -0.9421017
-0.32711595 -0.77109873 -0.37182885 -0.35187867 0.23370084 0.2664709 -0.2895515 -0.12098364
0.19885907 -0.2499689 0.113566734 0.2085321 0.091983214 0.13840929 -0.3564343 0.2438835
0.14058724 0.26399618 0.124344654 -0.23997816 -0.46135005 0.12990053 -0.24171288 -0.49051395
-0.08651421 -0.34277016 0.1605602 -0.18174298 -0.01058567 -0.5611241 0.15786192 0.15148854
-0.20002067 -0.022573994 -0.49739614 0.10544044 0.4072534 -1.1580492 -0.21217026 0.027070606
-0.34827483 -0.19781514 -0.96329397 -0.14741758 0.4461882 -0.40004852 -1.0187179 -0.5876866
0.033244174 0.32867384 -0.6362699 -0.28861034 -0.0024587598 0.13594952 -0.17285375 -0.36730412
-0.08386616 -0.45594716 0.1573451 -0.04598559 -0.30589357 -0.38538933 -0.2201664 0.092680134
-0.17442082 -0.11626705 0.08968874 0.19756345 0.31892455 0.28447184 0.18482348 -0.10416154
0.0153513625 0.03310999 -0.6597662 -0.22237808 -0.012941442 0.06651166 -0.0040378603 -0.3608606
-0.24385406 0.3954842 0.51591897 0.18180284 -0.3462425 -0.30198094 -0.09140258 0.08715579
-0.17803694 -0.18476617 -0.32111907 -0.024247516 0.12258725 0.108910255 -0.24719143 -0.024315383
-0.103896275 0.042958863 -0.064457335 -0.025456982 0.18153027 0.18780847 -0.19049373 -0.28854808
0.2820277 0.21474966 0.23554595 -0.08797285 -0.4451816 -0.15131663 -0.10875347 0.18341087
-0.02397049 -0.345366 0.016043542 0.13446158 -0.029888919 -0.18652944 0.06693521 -0.03459193
0.15269855 0.33300716 0.14143619 0.0714006 -0.27107486 0.16775265 0.2811754 0.22110572
0.21062326 -0.11383677 0.18203786 -0.30116782 -0.16297469 -0.24601139 -0.302099 -0.29270205
-0.74510485 -0.23544714 -0.453035 -0.6114251 -0.108553305 0.21121152 0.5595313 0.08849428
0.058608614 -0.680961 -0.3068943 -0.23957813 0.31628612 -0.26768085 0.20051365 0.33953002
-0.001784512 0.25589293 -0.07410961 0.45178428 0.46204495 -0.01526199 -0.23172833 0.067758575
-0.017046152 -0.12635475 -0.42542008 -0.24220009 0.08984634 -0.08182349 -0.23582983 0.18554853
0.2765911 0.2856911 -0.0018376391 -0.20749289 0.26779592 0.22142753 0.08808904 -0.18988077
0.12959498 0.12220461 -0.4046368 0.1647845 -0.22911319 0.0892693 0.032340694 -0.3359005
-0.058382917 0.025243765 -0.11583058 0.40481195 0.4612925 0.010951206 0.2622239 -0.12912895
-0.23882465 -0.13827205

feature_extractor.0.bias f4 [10]
00000000: fe74 2a3e a759 44be 2646 8ab9 4283 6b3e
00000010: 0747 243d 259d 13be c156 273e 892b 15be
00000020: 706f df3d a267 7d3e
0.16646191 -0.19174825 -0.00026373676 0.2299929 0.0401068 -0.14415415 0.16341688 -0.14567389
0.10909927 0.24746564

feature_extractor.3.weight f4 [20, 10, 5, 5]
00000000: 1afc 283f 6002 72be a2aa 613d b7a0 063e
00000010: 6951 cc3d c6b6 83be 86a6 033e 4b1f ca3d
00000020: 1aca 92be 71e2 5cbe ccfe 4e3f 4cd6 c1be
00000030: 6601 dcbd 73fa bbbd 0ff5 bb3d 18c5 c5bd
00000040: 67a8 383d 3622 b33e 4947 a03d 7f96 67bb
00000050: e18c c9bd 9d29 513c 4f65 b63d bf92 5bbf
00000060: 5b23 e8bd 2d11 e33c 55b5 413d 72e1 323d
00000070: b77b 2bbd b243 fbbb c37d 3d3d ca70 fbb9
00000080: e33b 16bd a0bd 7b3d 8ade c83c 4079 40bc
00000090: 76c5 2b3c afab 5b3d 2c6a 763d 1559 81bd
000000a0: 4655 4cbd 4677 3a3c 7894 35bc a71d 4f3d
000000b0: 49a1 95bc 1c27 353d cf2a 64bb 6312 973c
000000c0: e300 f0bc 4281 68bd 4b2b 7d3d 8ab4 4dbe
000000d0: 48d4 49be c284 e2bb ad7e b33d e6b3 b9bd
000000e0: 199c 22be cf28 6cbe 58af ba3d 7c89 abbe
000000f0: 3d02 9ebe a903 523d d43f c83e a7ff b03e
00000100: c636 9e3e 7eda c9be 348b 4e3d 7015 1b3c
00000110: 9beb 01bf 14b7 c8be 7d0c 1ebe 27b9 4d3d
00000120: 8705 493e 6e7b 973c 941a 5c3e 9a11 593f
00000130: b7c9 62be e2cb 05bf 9522 3ebf 70b0 c0bd
00000140: 795b e33e cfe3 3ebd 9cb5 8e3c 858f bbbe
00000150: 9297 f43c 3753 4e3e 235e d5be 82f3 ed3e
00000160: 30d3 cf3e 733e a03e ba22 11be 34cc 9bbe
00000170: b147 2b3f 0112 b53c bd3b 633d e419 773d
00000180: b135 5d3e a66b 1fbd e59d 8abe 667f d5be
00000190: 60ed 0a3e fc61 d93d d631 a33d db0c 24be
000001a0: 3e41 143e a7cb d53c 0661 0bbe 4285 6ebe
000001b0: 8e4b a0be e84b 54bd 17c5 e2be ce76 28be
000001c0: 2e79 1dbe bb04 7bbe 81fa ccbd 92ff 63be
000001d0: f11d 46bd f001 37be 0af7 2fbe 087d 73be
000001e0: 612d 5c3e cb7a a6bd 8f45 4a3d 9c54 193e
000001f0: 7390 8c3e c699 cbbc 3e01 093f dc54 91be
00000200: 8be8 7cbe 42dc 133e 9d4c 50bd 567b b7bb
00000210: 939c a6bd 0aab 9a3e 5594 523e c517 ca3c
00000220: 1463 bc3e b577 8e3d f74d 1f3d b10c d43d
00000230: 0b1a 33be e66a 76be bda5 fcbd 1ced 753d
00000240: bba4 07be 94e6 1a3c 6e26 18bd 216e 8abd
00000250: d79a d13c a50d c1bd 5ba8 51be 17cf 093f
00000260: b27b bd3a 0c2d 63be 6741 6b3e e9ee 20bf
00000270: 236d 80be 145b 04bd 859c 97be aeb6 8e3e
00000280: 3bd5 a13d a071 69bb c54a 4bbe 7a5b 4c3e
00000290: 3ff3 3d3e 901b adbe 5d47 003d 5c59 9b3d
000002a0: 1d7f c43c b0ed a03d 8e1c 7dbe ca6f 83be
000002b0: dc0d 2bbd 974e 8abd ee58 eebd 8e85 44be
000002c0: 8e32 503e ddd9 2f3e 8f9c d93d 6dce 183e
000002d0: fe6b 08bc 6378 0b3e ffca 08be e792 49bf
000002e0: 690a efbe 7a95 98be 5490 97be 98a5 14bd
000002f0: bf00 253e 3b36 d93d 0bb2 65bd 677b e3bd
00000300: 8e3d 003e 2bd8 953e 8854 32be 280d 9f3e
00000310: f633 7abe 207c 72be dd3a e8bd a784 eebd
00000320: 5f06 09bd 278c 1bbe 681e 29bf 4d9e 30be
00000330: 5ea2 973e 0a09 99bd b4eb 6e3d 1706 adbe
00000340: 2360 86be b918 11be 73fc 573e c477 c13e
00000350: 38aa adbe 8bef c63d 3d08 52be 4fc3 4e3e
00000360: 66d9 ffbb 9882 08bd c0d2 e3be 7167 81bd
00000370: bd0b 263d e87e e63d 4147 a8be ecfe 1e3e
00000380: 9774 233e 9922 233f 22b9 47be df60 b43a
00000390: 7494 ab3d c6d0 48be fbbd 50be 8e10 2fbe
000003a0: 0dad 353d e3c7 d93d 5c2e 8cbe a240 9f3c
000003b0: a31f 83bb d0f7 9b3e 75f2 993d 1e3d adbe
000003c0: 87dc cd3e 8da3 a53d 68bb 36be 88c2 2d3e
000003d0: a7df d8bd 2299 1cbe 6d7c 8cbe e928 01be
000003e0: 6a5f 2d3e daee 093e 1348 31be 170f f13d
000003f0: 685b 0fbe b3d1 08be bdbb b8bd e78c e9be
0.66009676 -0.23633718 0.05509437 0.13147245 0.09976465 -0.25725383 0.12856492 0.0986925
-0.28669816 -0.21570756 0.8085754 -0.37858808 -0.10742454 -0.09178629 0.091776006 -0.09656733
0.045082476 0.34987038 0.078260966 -0.0035337505 -0.09841324 0.012766269 0.08906042 -0.8577079
-0.113348685 0.027718151 0.047292072 0.043672033 -0.04186603 -0.007667982 0.046262514 -0.00047958485
-0.036678206 0.061460137 0.024520177 -0.011747658 0.01048409 0.053630527 0.060159847 -0.06315819
-0.04988601 0.011380976 -0.011082761 0.050565388 -0.018265383 0.04422675 -0.0034815555 0.018441385
-0.029297298 -0.056763895 0.061808866 -0.20088401 -0.19709885 -0.0069127986 0.08764396 -0.09067516
-0.15879859 -0.23062442 0.091154754 -0.3350333 -0.30861083 0.05127302 0.39111197 0.34570047
0.30901164 -0.3942451 0.050425723 0.00946556 -0.5075013 -0.39202178 -0.15434451 0.050225403
0.19631015 0.018491473 0.21494514 0.8479248 -0.2214726 -0.52264225 -0.7427152 -0.09408653
0.44405726 -0.046603974 0.017420582 -0.36632934 0.02985743 0.20148931 -0.41673383 0.46474844
0.4059081 0.31297645 -0.14173403 -0.30429232 0.6690627 0.022103311 0.055476893 0.060327426
0.21602513 -0.03892102 -0.2707359 -0.4169876 0.13567114 0.10614392 0.0796849 -0.16020529
0.14478013 0.026098086 -0.1361123 -0.23293021 -0.31307644 -0.051830202 -0.44290993 -0.1645157
-0.15378258 -0.24513523 -0.10008717 -0.22265461 -0.048368398 -0.17871833 -0.17184082 -0.23778164
0.21501686 -0.0812889 0.049382742 0.14973682 0.27453956 -0.024853598 0.5351752 -0.28385055
-0.24698083 0.1443949 -0.050854314 -0.0055994196 -0.08135333 0.30208617 0.20564397 0.024669537
0.3679434 0.06956426 0.038892712 0.10353983 -0.17490403 -0.24064216 -0.123362996 0.06004058
-0.13246433 0.009454388 -0.037146024 -0.06759287 0.025586529 -0.094264306 -0.20474379 0.5383162
0.001445642 -0.22185153 0.22974168 -0.6286455 -0.25083265 -0.03231342 -0.29611602 0.2787375
0.079019986 -0.0035620704 -0.19852741 0.1995677 0.18549822 -0.3381009 0.031318057 0.07585403
0.023986394 0.07857835 -0.24717924 -0.25671226 -0.041761264 -0.06753271 -0.11638056 -0.19191572
0.20331785 0.17172952 0.10625564 0.14922495 -0.008326529 0.13620143 -0.13358687 -0.7873978
-0.4668763 -0.29801542 -0.296023 -0.036290735 0.16113566 0.10606047 -0.056077998 -0.111075215
0.12523481 0.29266486 -0.17415059 0.31064725 -0.24433884 -0.23680162 -0.11339352 -0.11646395
-0.03345334 -0.15190183 -0.6606202 -0.17247887 0.29616064 -0.07472427 0.058330253 -0.3379371
-0.26245221 -0.14169587 0.21092395 0.37786686 -0.3391893 0.09713658 -0.20510955 0.20191692
-0.0078078983 -0.03332767 -0.44496727 -0.06318558 0.04053854 0.11254674 -0.32866862 0.15526932
0.15962444 0.63724667 -0.19504216 0.001376178 0.083779246 -0.19610891 -0.20384972 -0.17096159
0.044354487 0.106338285 -0.2737912 0.019439999 -0.004001574 0.30462503 0.07516948 -0.3383569
0.40207312 0.080878355 -0.17844927 0.16968739 -0.10589533 -0.1529279 -0.2743868 -0.12613262
0.16930929 0.13470021 -0.1731265 0.11770456 -0.13999712 -0.13361244 -0.09020183 -0.45615312

feature_extractor.3.bias f4 [20]
00000000: 2323 89bf 7b3b adbe 983c 12bf eb1d 0cbf
00000010: 6385 56bf 5e41 bdbd ff19 5abf ba9e e6be
00000020: 2c4a 77be 2a48 76bf 725a d2bd 5e7e da3e
00000030: 644d fcbe 2176 22bf 2846 d93f 4f04 2dbf
00000040: 2d7f bdbe 456a cebd c55d d13c c2ee cd3f
-1.0713848 -0.33834442 -0.5712371 -0.5473315 -0.8379728 -0.092409834 -0.85195917 -0.45042974
-0.24149388 -0.96203864 -0.10271157 0.42674536 -0.49277794 -0.634615 1.6974535 -0.675847
-0.3701109 -0.10078863 0.025557408 1.6088488

classifier.0.weight f4 [50, 320]
00000000: b96e d0be e1ea 73be 590b 073f caf6 763f
00000010: 2b8d ddbd d608 ce3d 0ad1 3d3e 3c32 ba3e
00000020: 8e2a 50bd 1a58 29be 84f0 bbbd 9ec4 3ebe
00000030: 6d97 bc3d 14a3 66be 775e cfbe 4a67 81be
00000040: 55d7 5d3e ec83 f73d 94ab eabe 0ce7 3abf
00000050: ff67 f93d 4d1c 67bb a7d6 183d 30be cbbd
00000060: b6ad 313e da23 053e 03e3 043e 73c5 583e
00000070: 87ab 9d3d 5077 153c c1ef 523e 1213 703d
00000080: ae3b 9fbd 1676 82be bb5c 07bf 4a58 debe
00000090: 1aa0 813e fb53 d0bd 2f2a 153e bb44 da3e
000000a0: d0f7 fd3d b801 50bd b83d fc3c 07c5 543e
000000b0: 491a 813e 64c6 96bd 0243 b03c ece4 113e
000000c0: 5a79 fd3e f157 3a3e ceb3 8fbe 5128 08bf
000000d0: b5e8 9fbd 26b3 52bd 39d7 babd 4760 ddbe
000000e0: 210f 41bd 9347 3a3e 8488 5f3e c05f 633d
000000f0: 3fef c1bd e3b3 1c3e 905c 3e3e 0e9a 913e
00000100: 1a87 77be 637e cdbe ce8b 6cbe e2b3 b7bd
00000110: 7cef df3d 78b3 143e e9db a13d 5cfe 56be
00000120: 1402 51bd b991 4c3d 90be 2b3e a867 a43d
00000130: 4279 a03d 6575 5b3d 7695 7c3e c3d4 aa3e
00000140: 5ed9 833e f275 a83e 36ac 5d3e 9710 09be
00000150: b69e da3c a14e a3bd 5e4c 03be f68c 85be
00000160: 8aaf ec3d 6711 38be b283 8fbe fc76 ddbc
00000170: 8a40 e73d cc42 87bd 1c2b 183c 4f75 753e
00000180: 69d2 2dbe 876e 82bd a4c9 ae3e 716e e43e
00000190: 8183 89be 4219 d43c 1647 8f3e c3c4 313e
000001a0: 2196 10be 8e86 623e 089a 013e 3f4c a4bc
000001b0: 62f0 53be 610c 49bd 8e61 38be 75ea c5be
000001c0: 997b 083f ec04 ac3e bf43 1b3c da19 f1be
000001d0: ad0b 49bd 62fc 25be be4c b8bd cd2b ffbd
000001e0: 399a dabd f7ed 153d c529 033e 4b8d 373e
000001f0: 4f3a 63bc 724f 6fbd c7f7 fa3d 1f01 84bd
00000200: e38b 6a3e 6be5 dc3e bd64 953e 7b2c 0abd
00000210: 4abd 0cbc 4ad3 efbd d725 94be 45f5 47be
00000220: b7ad d8bc b304 11bd 852b 003e 6185 76be
00000230: 77df 48be 7055 483c 250e 48bd 3d98 883d
00000240: c4d0 a3be 74eb d6be a729 abbd bb1d bc3e
00000250: 89f8 793d 8069 7a3c 66d4 1d3e eb5a 063f
00000260: c7f6 763e 9232 05bc 6a5b a03c 4865 423e
00000270: 814d 923e ee06 05bd 3f72 0ebe 8718 a6be
00000280: 1e08 813e 226d 613e 2425 883e a2c3 08bc
00000290: 7d11 82be c8f5 0bbe 01fa 52be 9b07 8abe
000002a0: b53c b23d 2ea7 38bd c5f7 05be c20f 943c
000002b0: 0524 56bd aa96 2cbe 3ee0 783d e68d 053e
000002c0: 9150 e9b9 4b32 633e d5b3 fd3e 5a1b 123f
000002d0: ed6c a0be bbee 9d3d 2b1a 0b3d 5254 9d3d
000002e0: b371 1cbe 0c42 e73b 2508 983d 1ea7 c7be
000002f0: 6f07 cdbc 61cb 18bd da65 71be 60d3 3bbe
00000300: 1561 193e f540 01be 14b5 86bd 8375 18be
00000310: 4bb3 18be 91b0 62bd 46fa 35be f2f9 4fbe
00000320: 64fd 16bd 4a56 e83d 5cea e83e 07c6 03bc
00000330: c446 4fbe bd12 f1bb 58fa 023e 77f0 fe3d
00000340: a2f4 d73e 8b96 8a3d 8887 4bbe d5cb edbe
00000350: 78ab 9b3d 0be1 cdbc 4383 33bd 9404 83be
00000360: 5b26 67bd aaea 2b3e 6a16 303e aedd 08bd
00000370: 8648 76be 1167 f53d 4be2 783e 1255 393e
00000380: 5737 7e3e 166e 403b 5861 babe 9bbb e9be
00000390: 7f39 ab3d 9528 2c3d f55f b53b f287 97bd
000003a0: b123 3dbd ee92 923d 9fe4 533e 6783 e8bc
000003b0: 9b7e 0dbd 7efe 9f3d e089 303e 4ef9 e5bd
000003c0: d19a c33e c089 a73e 88b9 953e 1057 5dbe
000003d0: 0b7d 1abe d1c2 bf3d 4c4e 2dbe 3eaa bfbe
000003e0: 23cb 1dbe 37d6 6f3d b1a2 0c3e aed6 2c3d
000003f0: fc67 aabe 03ca c5bd 09b2 113e fcce bfbd
-0.40709475 -0.23820068 0.5275169 0.9647032 -0.10817941 0.10060279 0.18536773 0.3636645
-0.050821833 -0.16537514 -0.09176734 -0.18629691 0.0920857 -0.22523147 -0.40501758 -0.25274116
0.21664174 0.12085709 -0.4583403 -0.730088 0.12178039 -0.0035264671 0.037314083 -0.09948385
0.17351422 0.13001958 0.12977223 0.21169071 0.07698732 0.009122685 0.20599271 0.058611937
-0.07775055 -0.25480717 -0.5287587 -0.43426734 0.2531746 -0.10172268 0.14566873 0.42630562
0.12400782 -0.05078289 0.030791149 0.20778285 0.25215366 -0.07362059 0.021516327 0.14247483
0.49506646 0.1819761 -0.28066868 -0.5318652 -0.07808057 -0.05144038 -0.09123082 -0.43237516
-0.04713357 0.18191366 0.2182942 0.055511236 -0.09469461 0.15302996 0.18589997 0.28437847
-0.24172631 -0.40135488 -0.23100206 -0.08969857 0.1093435 0.14521587 0.07903273 -0.20995468
-0.051027372 0.04994366 0.16771913 0.08027583 0.07835628 0.053578753 0.2466639 0.3336545
0.25751776 0.32902485 0.21647725 -0.13385235 0.026687007 -0.07973982 -0.128221 -0.26084107
0.11556919 -0.17975388 -0.28030163 -0.027034275 0.11291607 -0.06604537 0.009287622 0.23970531
-0.16974796 -0.06368738 0.34138215 0.4461551 -0.26858142 0.02589095 0.27983922 0.17360215
-0.1411977 0.22121641 0.12656415 -0.020055888 -0.20697168 -0.04908407 -0.18005964 -0.3865544
0.53313595 0.33597505 0.009476601 -0.47090036 -0.0490834 -0.16209558 -0.089990124 -0.12459526
-0.10673947 0.036603894 0.12808903 0.17924993 -0.013868882 -0.058425374 0.12254291 -0.06445526
0.22904925 0.43143782 0.2917842 -0.033733826 -0.008590052 -0.11710222 -0.2893512 -0.19527157
-0.026450021 -0.035404872 0.12516601 -0.24074318 -0.19616495 0.012227401 -0.048841614 0.06669662
-0.31995213 -0.4197651 -0.08357554 0.36741433 0.061028037 0.015283942 0.15413055 0.5248248
0.24117576 -0.008129733 0.01957484 0.18983948 0.28574756 -0.03247731 -0.13910769 -0.32440588
0.25201505 0.22014287 0.26590836 -0.008347424 -0.25403967 -0.13667977 -0.20603181 -0.26958928
0.08702985 -0.04508131 -0.13082798 0.01807392 -0.052280445 -0.16854349 0.06076073 0.13042411
-0.0004450125 0.22187154 0.49551263 0.57072985 -0.31333104 0.0771155 0.033960503 0.076820984
-0.15277748 0.007057434 0.074234284 -0.38994688 -0.025027959 -0.037303332 -0.2357401 -0.18342352
0.1497844 -0.12622435 -0.06577507 -0.14888577 -0.14912145 -0.055344168 -0.17771253 -0.2031019
-0.036862746 0.11344583 0.45491302 -0.008042819 -0.20241839 -0.00735697 0.12790811 0.12448209
0.42178828 0.06766995 -0.1987592 -0.46444574 0.076010644 -0.025131723 -0.043826353 -0.2558943
-0.056433063 0.16788736 0.1719605 -0.033414535 -0.24051103 0.11982549 0.24305074 0.18098858
0.24825798 0.0029362491 -0.36402392 -0.45650944 0.08360576 0.04203089 0.0055351206 -0.073989764
-0.046176616 0.07156931 0.20692681 -0.02838297 -0.03454457 0.078122124 0.17240095 -0.11229192
0.38204053 0.32722282 0.29243112 -0.21615243 -0.15086763 0.0936333 -0.16924399 -0.37434572
-0.15409522 0.0585539 0.13733937 0.042196922 -0.3328246 -0.09657671 0.14228071 -0.09365651

classifier.0.bias f4 [50]
00000000: 1a84 c23d c194 2c3e 7f49 383e 804e 0a3f
00000010: a316 e33e be70 023d 03b6 0a3f ad31 f53e
00000020: f4b9 f83e 2362 8d3e 8147 78bc e341 a43e
00000030: 5d19 f53e 7049 fc3d cfa3 5c3d 462f e63e
00000040: e9c4 d43e a076 103f 341d 1f3e 6bf7 1b3f
00000050: f340 a23e 4969 bb3e 3f53 f33e 752d 2b3f
00000060: 2a3d 383f b0c0 e83e 77d5 473e 0893 733e
00000070: 83e1 cc3e 05bd 023f be67 c63e 6ec1 fe3e
00000080: e099 8e3e b448 443e bbf2 e33e 3a4f ec3e
00000090: 4620 0a3f dd20 0d3f 3f08 813e 3ee7 9b3e
000000a0: 6a4e fc3e 1313 f33e bd3f 133f 3bff 0b3f
000000b0: 9ab7 f43e e4c2 f83d bccf b83e 6641 05bb
000000c0: 0ff4 183f a9b6 1f3f
0.094978526 0.1685362 0.17996787 0.5402603 0.44353208 0.0318458 0.5418398 0.47889462
0.4857937 0.27613935 -0.015153767 0.32081518 0.47870913 0.123186946 0.053867158 0.44957942
0.4155648 0.5643101 0.15538484 0.60924405 0.31690177 0.36603764 0.4752445 0.66866237
0.7196833 0.4545951 0.19515024 0.23786557 0.40015802 0.5106967 0.38751024 0.4975695
0.27851772 0.19168359 0.44521126 0.46154195 0.53955495 0.5512827 0.25201604 0.3044986
0.49278575 0.4747549 0.5751913 0.54686326 0.47796327 0.121465474 0.3609599 -0.002033317
0.59747404 0.6238809

classifier.3.weight f4 [10, 50]
00000000: 9ff8 153e 5293 c2be fbfa 8bbe 8a2f 5bbe
00000010: ac08 89bd e168 2fbe ba97 8bbe a680 a53d
00000020: 14f7 053e b1c8 203d 0aff b6be ecf0 21be
00000030: adc3 a9be 5445 923c 198b 4abe 50b1 e43d
00000040: 9b67 b93d de39 b03d 4fcd 1dbe dcd5 df3d
00000050: 9470 b0be 459e 063e 4159 4fbd c756 63bd
00000060: 610b 55be 4fe3 9cbe b6ad 003e c6ec 72be
00000070: f8cb 81be b129 21be db1f 9e3d 4279 063e
00000080: 756e 64be 113d cd3d 174d 27be cb12 153d
00000090: df1e 57be 0118 3cbe 169e c63d 8d5f c3be
000000a0: 611c 0b3d 1964 8abe 62e5 98be 9b53 b1be
000000b0: ed20 bbbe 9203 d7be cb16 87be 2872 c1bd
000000c0: 2923 8e3d 2fe3 e9bd 7170 acbe e511 9c3c
000000d0: f9bc f93d 6638 53be e007 95be 1221 093e
000000e0: d693 9f3d 1151 dfbe 6db0 48be ad9a 43bd
000000f0: d067 803c c399 d33d 4a21 e5bd 6182 babe
00000100: b650 a9be 3989 96be 6f6a 113e a783 f8be
00000110: 22a4 8c3d 446e 1ebe b325 e13d 5241 7ebe
00000120: 2696 1fbf 1c0a ccbe 362d 93be d46f cf3d
00000130: 2775 c93d f149 e0bd ddc8 ac3d e846 103e
00000140: 75bc 78be 671c 0abf 2997 a3be 05d8 af3c
00000150: 6a29 dc3d 33c6 e33d 2eaf 82be 5202 95be
00000160: e171 ab3c 1dec 29be 0fe3 a4be 2055 033e
00000170: 41ec 3ebe 6e49 28be cb43 a9be af4d 9a3d
00000180: ac5d 40be 66d2 c4be 9943 dcbe 94e1 d33d
00000190: dfb2 343d 41cd 07be b34b 71be 563b 71bd
000001a0: 221f 9c3d e8e3 31be 1923 d43d cf45 3abe
000001b0: 2407 cc3d 4e1f 193e 79ca 98be 5ffb 203d
000001c0: 1240 023d 3a6b 46be df76 633d 430d ed3c
000001d0: 9c8c 75bd a539 b73c f122 043e 00e5 a2be
000001e0: fc57 37be 3cc5 a73d ad94 3dbe af85 de3d
000001f0: 3fd8 9b3d 10e5 cd3d 71ce d9bd 0d93 37be
00000200: ecfa 413d 919a a0bd a36f c73c 4ca1 b8be
00000210: 1bd2 a1bd 6a48 4a3d 0680 31be 9fa9 073e
00000220: 1956 82be 6560 9e3d 57d7 d63d 376a f0bd
00000230: 41e0 05be 8604 213e 9426 c3bc b9dd 89be
00000240: d972 2dbe 98ed 6ebe a214 d93d a6cf c13d
00000250: 256d 41be b099 ab3d e371 80bd ef41 443e
00000260: 8823 593c 800f 103e 1101 b83d df36 7cbe
00000270: 01a7 cc3d b92d 55bd c8f6 823d b53a ca3d
00000280: ddcb a43d 9fa4 2fbe 14c2 193d 6a92 a73d
00000290: 4a52 6ebd 1a41 4ebe 69f1 fe3d 6f74 ddbd
000002a0: 83cb 0e3e 84e8 c3bd fb0d 2fbe efe8 ad3d
000002b0: 5531 e9bd 6368 1abe 184c 163e 50fc 94bd
000002c0: ac9b aabd a8cf 003e 8bd9 0fbd ecaa 52be
000002d0: cd3a 8cbe fe26 09be a0d9 d23d 6e23 4bbe
000002e0: f4c6 46be 3253 0e3e bf40 17be 9df1 14be
000002f0: c82f 11be 43c9 86bd 464d 593a 6663 7fb9
00000300: c9e0 b83d 40be 87bd 928a 4e3d c300 27be
00000310: 5b85 e63d bf9e debd 1548 093e 2fbe 0bbe
00000320: df29 5fbe dba7 66be b06c e13d cc58 ac3d
00000330: 9241 193d aa30 023e 7008 1d3b a853 8abe
00000340: 0a60 89be 9fcc 3dbe 87c3 febd a80d f93d
00000350: b7be cfbe 18fe 8dbe ce5f 813d fd55 a23d
00000360: 830f 22be 3dc0 8abe 570b 6dbe 143a 66be
00000370: afc4 e53d 1fe8 3abe 3b4a b53d 8354 ca3d
00000380: b198 c63d bff4 25bd a97f 9fbe 68f9 9bbe
00000390: 1c8e 9ebd 002a e43d 491c dd3c 95f4 aebd
000003a0: e460 fcbd 11a9 25be 351e 88bd 184a 84be
000003b0: 2e7f 123d ff40 1abe 9b06 95be 2712 233e
000003c0: 344d aebe 47f6 47bd ec43 af3d 9721 d13d
000003d0: d867 49be 779a 763d 2b9c c8be 1c8b bc3d
000003e0: d09c 6abe 2790 be3d c598 9dbd dd08 373e
000003f0: b6b1 493d 46a6 163e 84cf b73d dd04 b7bb
0.14645623 -0.3800302 -0.2733992 -0.21404853 -0.06691107 -0.17129852 -0.27264196 0.08081178
0.13082534 0.039253894 -0.35741454 -0.1581456 -0.331571 0.017855324 -0.19779624 0.11166632
0.09052964 0.08604787 -0.1541035 0.10929462 -0.3446089 0.13146313 -0.05062223 -0.05550268
-0.20805122 -0.30642173 0.12566265 -0.23723134 -0.25350928 -0.1573856 0.0772092 0.13132194
-0.22307761 0.10021413 -0.16338001 0.036394875 -0.2100787 -0.18368532 0.09698121 -0.38158837
0.03396261 -0.27029493 -0.29862505 -0.34634098 -0.36548558 -0.4199491 -0.26384577 -0.09445602
0.069403 -0.11420285 -0.33679536 0.019051502 0.12194247 -0.20626983 -0.2910757 0.13391522
0.07791869 -0.43616536 -0.19598551 -0.047754932 0.015674502 0.10332062 -0.1118799 -0.36427596
-0.3306939 -0.29401568 0.14200757 -0.48537943 0.06867243 -0.1547175 0.10993519 -0.24829605
-0.62338483 -0.39851463 -0.2874543 0.101287514 0.09836798 -0.10951603 0.08436749 0.14089549
-0.2429064 -0.5394959 -0.31951264 0.02146531 0.107500866 0.11121788 -0.25524276 -0.29103333
0.020928325 -0.16593976 -0.32204482 0.12825441 -0.18644811 -0.16434261 -0.33059534 0.07534348
-0.18785733 -0.3844177 -0.43020323 0.1034576 0.044115897 -0.13261892 -0.23564033 -0.058894478
0.076231256 -0.17372096 0.10358257 -0.18190692 0.099622995 0.14953348 -0.29841974 0.039302226
0.031799383 -0.19376841 0.055533286 0.028936988 -0.05994855 0.022366354 0.12903954 -0.31815338
-0.17904657 0.08191916 -0.18513747 0.10865342 0.07609605 0.10053456 -0.10635079 -0.17927189
0.04735844 -0.07841981 0.024345225 -0.3606056 -0.079014026 0.049385466 -0.17333993 0.13248299
-0.25456312 0.077332295 0.104902916 -0.11739009 -0.13073827 0.15724382 -0.023822106 -0.26926973
-0.16938342 -0.23332822 0.105996385 0.09463434 -0.18889292 0.08378923 -0.06271722 0.19165777
0.0132531 0.14068413 0.089845784 -0.24630307 0.09992791 -0.052045558 0.06394726 0.09874479
0.08046696 -0.17152642 0.037538603 0.08182223 -0.058183946 -0.20142022 0.12448389 -0.108132236
0.13944821 -0.09565833 -0.17095177 0.08491694 -0.113863625 -0.15078883 0.14677465 -0.07274687
-0.08330473 0.12579215 -0.035119575 -0.20573014 -0.2738861 -0.1339378 0.10295415 -0.19837734
-0.19411832 0.13898924 -0.14770792 -0.14545293 -0.14178383 -0.065813564 0.00082894077 -0.00024355724
0.09027249 -0.06628084 0.05042512 -0.16308884 0.11255904 -0.10870122 0.13406403 -0.13646768
-0.21793316 -0.2252497 0.110070586 0.08415374 0.03741605 0.12713876 0.0023961328 -0.2701695
-0.26831084 -0.18535088 -0.12439638 0.12160808 -0.4057519 -0.2773292 0.063171014 0.07926557
-0.1582623 -0.2709979 -0.23148857 -0.22483093 0.11219155 -0.1825261 0.08852049 0.098794006
0.09697092 -0.04051661 -0.31152084 -0.3046372 -0.07741949 0.11140823 0.026991026 -0.08542744
-0.12323168 -0.16177775 -0.066463865 -0.2583778 0.03576582 -0.15063857 -0.29106602 0.15924893
-0.34043276 -0.048818853 0.08557877 0.10211485 -0.1966852 0.060205903 -0.39181647 0.092062205
-0.22911382 0.09304839 -0.07695154 0.17874475 0.049241744 0.14711866 0.08975127 -0.0055852965

classifier.3.bias f4 [10]
00000000: 9863 5f3f 10f9 bf3f a8af febe 3b38 25bf
00000010: 6498 cd3e d608 85bf 363a a2bd 09e8 43bf
00000020: 5145 583e e0b8 8e3e
0.87261343 1.4997883 -0.4974339 -0.64538926 0.40155327 -1.0393322 -0.07921259 -0.7652593
0.21120192 0.27875423
