trained_models/source.pt (torch, 90255 bytes, 8 tensors)

feature_extractor.0.weight f4 [10, 1, 5, 5]
0	0xbe74e9c3	-0.23917298
1	0xbe2e2281	-0.1700535
2	0xbe8cc311	-0.27492574
3	0xbeaf21c8	-0.3420546
4	0xbeb00c25	-0.34384266
5	0x3e31047e	0.1728687
6	0x3d09352e	0.03349798
7	0xbca26a7f	-0.019826172
8	0xbe9603ef	-0.29299876
9	0xbef3d10d	-0.4762043
10	0x3e8e1ee6	0.2775795
11	0x3ed1fda7	0.41013834
12	0x3cc3c433	0.023897266
13	0x3b46efa5	0.0030355242
14	0xbddee66d	-0.10883794
15	0x3d8fe2f5	0.070257105
16	0x3e4857e3	0.19564776
17	0x3eb03308	0.34413934
18	0x3e56dd31	0.20982815
19	0x3e7a0106	0.24414453
20	0xbd274aa7	-0.04084268
21	0xbe0ab099	-0.13543929
22	0x3d9f5953	0.07780709
23	0x3e671783	0.22567563
24	0x3e384be9	0.17997707
25	0x3dd7d78d	0.1053916
26	0xbda00640	-0.07813692
27	0xbc404800	-0.011735916
28	0xbd9bd99a	-0.076098636
29	0xbd864857	-0.065567665
30	0xbcb6f3da	-0.022333074
31	0xbe44d173	-0.19220524
32	0xbc7ca9cd	-0.015421343
33	0xbd9c1147	-0.07620483
34	0xbd21686d	-0.03940623
35	0xbce49fcd	-0.02790823
36	0xbe4acf13	-0.19805555
37	0xbc61f8e7	-0.013792253
38	0xbddc6d43	-0.107630275
39	0x3c299fe7	0.010353065
40	0xbde46d37	-0.111536436
41	0x3e009e50	0.12560391
42	0xbe46452f	-0.19362329
43	0xbcec9c8d	-0.028883243
44	0x3d956cbd	0.07296131
45	0xbe353a1b	-0.17697947
46	0xbd8933b7	-0.06699317
47	0x3daa7f60	0.08325076
48	0xbe18bcea	-0.14915815
49	0xbcb605cd	-0.022219563
50	0x3e7d3166	0.24725875
51	0x3dee945c	0.11649391
52	0xbdaf5f56	-0.08563106
53	0x3c9b304c	0.018943928
54	0xbd981653	-0.07426133
55	0xbe91f727	-0.28508875
56	0xbeff7838	-0.49896407
57	0xbddc88fe	-0.10768317
58	0x3db55022	0.08853175
59	0x3ca8205c	0.020523243
60	0xbe4a261d	-0.19741102
61	0xbec23afb	-0.37935624
62	0xbe186fae	-0.14886352
63	0x3d6c5eed	0.057707716
64	0x3eb8ec2d	0.36117688
65	0xbe8fbc7e	-0.28073496
66	0xbd6fd74a	-0.058554925
67	0x3e96dbd2	0.29464585
68	0x3e6d3c52	0.23167542
69	0x3eb3cd46	0.3511755
70	0x3dde00ed	0.1084002
71	0x3e9edf95	0.31029955
72	0x3c6a9045	0.014316623
73	0x3e758000	0.2397461
74	0x3e7ca2f5	0.24671538
75	0xbdbc0a4d	-0.09181652
76	0x3ca5aadf	0.02022308
77	0xbe677f7a	-0.22607222
78	0xbe2cbd61	-0.16869117
79	0xbe0de522	-0.13856938
80	0xbe5b31ba	-0.21405688
81	0x3c0a3515	0.008435507
82	0x3e402124	0.18762642
83	0x3e24093d	0.16019149
84	0x39b1e84c	0.00033933145
85	0x3b36a1d3	0.002786745
86	0x3e827ac8	0.254843
87	0x3d6ffec4	0.058592573
88	0x3c7453e4	0.014912579
89	0xbdd9d814	-0.10636917
90	0x3e003795	0.12521203
91	0x3e4efde2	0.20214036
92	0x3dc2f056	0.09518497
93	0x3e132600	0.14369965
94	0x3db88d93	0.09011378
95	0xbd55f178	-0.052232236
96	0xbe1e6ec8	-0.15471947
97	0xbb93ad25	-0.0045067244
98	0x3d42b499	0.047535513
99	0x3b622612	0.0034507555
100	0x3e288f84	0.16460997
101	0xbe73cda9	-0.23808922
102	0xbf30499b	-0.68862313
103	0xbf131fc6	-0.5747036
104	0xbe12481c	-0.1428532
105	0xbca08bd0	-0.019597918
106	0xbf33eead	-0.70286065
107	0xbf014bbe	-0.505062
108	0xbceb5b77	-0.028730137
109	0x3cf28870	0.029606074
110	0xbef18498	-0.47171474
111	0xbeb08d58	-0.34482837
112	0x3d45e4e1	0.04831398
113	0x3c2dbeef	0.010604604
114	0x3eb93876	0.3617589
115	0xbf0fb76d	-0.5613926
116	0xbe3c32cf	-0.18378757
117	0x3d117dff	0.03552055
118	0x3e3f04f1	0.18654229
119	0x3e74b4ab	0.23897044
120	0xbf06f192	-0.5271236
121	0xbd1f9092	-0.038956232
122	0x3e86eca9	0.26352432
123	0x3e91b36c	0.284572
124	0x3ef2eea4	0.47447693
125	0x3d987d72	0.07445802
126	0x3e1dbc5e	0.15403888
127	0xba949871	-0.0011336935
128	0xbda5834d	-0.08081684
129	0xbd8f4bda	-0.069968894
130	0xbec0ac57	-0.37631485
131	0x3d361ee7	0.044463065
132	0x3e85ea3f	0.26155278
133	0xbc567204	-0.013088707
134	0x3d71617b	0.058930855
135	0xbecc18d0	-0.3986268
136	0xbe89b838	-0.2689836
137	0x3ea7eb5b	0.3279675
138	0x3e889449	0.26675633
139	0x3eab4f0d	0.33458748
140	0xbebdc292	-0.37062508
141	0xbe02192e	-0.12704918
142	0x3d1833d9	0.03715882
143	0x3e303ade	0.17209956
144	0x3e7a2494	0.24428016
145	0xbf0c6988	-0.5484853
146	0xbe71ad4c	-0.23601264
147	0x3cde6309	0.027146833
148	0x3d8f3fa0	0.069945574
149	0x3e626034	0.22107011
150	0xbd9ade19	-0.07561893
151	0x3e658e9f	0.22417687
152	0x3cf699b5	0.03010259
153	0xbdd33249	-0.103123255
154	0xbf16fcc7	-0.5897946
155	0x3ddccf65	0.10781745
156	0x3e81fa25	0.25386158
157	0x3e4ceb68	0.20011675
158	0xbe932c38	-0.28744674
159	0xbf201a20	-0.62539864
160	0x3eaf9c91	0.34299138
161	0x3de583c4	0.11206773
162	0x3d91a9b3	0.07112446
163	0xbe4a31fc	-0.1974563
164	0xbecf05cf	-0.4043412
165	0x3e993c8c	0.29929006
166	0x3dacf017	0.08444231
167	0x3cfbe3d2	0.030748282
168	0xbf099f02	-0.5375825
169	0xbef38a5c	-0.47566497
170	0x3ea2ef5a	0.31823236
171	0x3e537937	0.20651709
172	0xbe18ff8f	-0.14941238
173	0xbef6d812	-0.48211724
174	0xbe17e42d	-0.14833136
175	0x3e96461e	0.2935037
176	0x3e355622	0.17708638
177	0x3e81a864	0.25323784
178	0x3d3a1ef1	0.045439664
179	0x3b81055c	0.0039374065
180	0x3e433201	0.19062044
181	0x3e6e04c2	0.23244002
182	0x3ea4146e	0.32046837
183	0x3e61ae69	0.22039188
184	0x3e14d69d	0.14534993
185	0x3de09c65	0.1096733
186	0xbda6c662	-0.08143307
187	0xbd1e770d	-0.038687754
188	0x3df34f25	0.1188033
189	0x3d8c68f4	0.06855956
190	0xbe164f37	-0.14678656
191	0xbe844b4f	-0.25838706
192	0xbe4d197a	-0.2002925
193	0xbe1bfd00	-0.1523323
194	0xbdc9a78e	-0.09846412
195	0xbeb37f4d	-0.3505806
196	0xbe12dae2	-0.1434131
197	0xbe9a31f0	-0.30116224
198	0xbea8b721	-0.32952216
199	0xbea37c33	-0.31930694
200	0x3cab6f77	0.020927174
201	0xbe675f97	-0.22595058
202	0x3d2cb037	0.04216024
203	0xbe0d81a5	-0.13818987
204	0x3d203b43	0.039119016
205	0xbe41f6cc	-0.18941802
206	0x3e66fa44	0.22556406
207	0x3e51d8e5	0.20492895
208	0xbe006f19	-0.1254238
209	0x3e7dee4d	0.24797936
210	0xbca87615	-0.020564118
211	0x3ea22223	0.3166667
212	0x3e95c2d4	0.29250205
213	0x3d1015eb	0.035177153
214	0x3d1752b5	0.03694411
215	0x3e37118f	0.17877792
216	0x3d2a57df	0.041587707
217	0x3df24eeb	0.11831459
218	0x3db601c1	0.08887053
219	0xbc926d8a	-0.017874498
220	0xbdbd9013	-0.092559956
221	0xbe13318a	-0.14374366
222	0xbe950372	-0.2910419
223	0xbe1d72e5	-0.1537586
224	0xbe85f6a3	-0.2616473
225	0x3e93952d	0.2882475
226	0x3deccde3	0.11562707
227	0xbd90c4a4	-0.07068756
228	0x3e66ec2a	0.22551027
229	0x3d656644	0.05600573
230	0x3db72fc4	0.089446574
231	0xbdbd1341	-0.09232188
232	0x3e1a161d	0.15047498
233	0x3e0f7761	0.14010383
234	0xbe661171	-0.22467591
235	0x3e5be603	0.21474461
236	0x3afb32e8	0.0019164952
237	0x3e8200c7	0.25391218
238	0x3d817363	0.063208364
239	0xbeb90ee1	-0.36144164
240	0x3cdf528c	0.027261041
241	0x3e43840c	0.1909334
242	0xbd6a6571	-0.05722565
243	0x3e4056bd	0.18783088
244	0xbde0d8a6	-0.109788224
245	0x3cdb7520	0.026789248
246	0x3d9d450d	0.07679186
247	0xbe261a61	-0.16221
248	0xbd687b5b	-0.056758266
249	0xbe863a13	-0.26216182

feature_extractor.0.bias f4 [10]
0	0x3daa6a2d	0.08321033
1	0xbe4459a7	-0.19174825
2	0xbe27d06b	-0.16388099
3	0x3e08bb5c	0.13352722
4	0x3e33f72c	0.17574757
5	0xbdc2299d	-0.09480593
6	0x3d858c69	0.06520922
7	0x3d837614	0.06419006
8	0x3d54e56e	0.051976614
9	0xbd83ad6c	-0.06429562

feature_extractor.3.weight f4 [20, 10, 5, 5]
0	0x3e3ac9bb	0.18241017
1	0x3dd67d62	0.104731336
2	0xbe06ee5d	-0.13176866
3	0xbee9583f	-0.4557514
4	0xbe521be5	-0.20518453
5	0xbe478546	-0.19484434
6	0x3df0ae47	0.11751991
7	0x3e1691d4	0.14704067
8	0x3c8074f4	0.015680768
9	0xbcbcbfec	-0.023040734
10	0xbe5a002c	-0.21289128
11	0x3da2ee12	0.079555646
12	0x3e9a06d3	0.3008333
13	0x3dcda669	0.10041506
14	0xbba35be8	-0.0049853213
15	0xbdf7a9d7	-0.12092941
16	0xbda83dfd	-0.08214948
17	0x3e12dff8	0.1434325
18	0x3dd610dd	0.10452435
19	0xbdbb8041	-0.09155322
20	0x3d8c6303	0.068548225
21	0xbca66565	-0.02031202
22	0xbd5b01f3	-0.053468656
23	0xbcee1178	-0.029061064
24	0x3c2f7dc4	0.010711137
25	0x3ce3112d	0.027718151
26	0x3d41b555	0.047292072
27	0x3d32e172	0.043672033
28	0xbd2b7bb7	-0.04186603
29	0xbbfb43b2	-0.007667982
30	0x3d3d7dc3	0.046262514
31	0xb9fb70ca	-0.00047958485
32	0xbd163be3	-0.036678206
33	0x3d7bbda0	0.061460137
34	0x3cc8de8a	0.024520177
35	0xbc407940	-0.011747658
36	0x3c2bc576	0.01048409
37	0x3d5babaf	0.053630527
38	0x3d766a2c	0.060159847
39	0xbd815915	-0.06315819
40	0xbd4c5546	-0.04988601
41	0x3c3a7746	0.011380976
42	0xbc359478	-0.011082761
43	0x3d4f1da7	0.050565388
44	0xbc95a149	-0.018265383
45	0x3d35271c	0.04422675
46	0xbb642acf	-0.0034815555
47	0x3c971263	0.018441385
48	0xbcf000e3	-0.029297298
49	0xbd688142	-0.056763895
50	0x3d5097b0	0.05092591
51	0xbdaedb8c	-0.08537969
52	0xbdcf2aa8	-0.10115558
53	0x3d1d5a3f	0.038416144
54	0xbb056d58	-0.0020359363
55	0xbcca1d81	-0.024672272
56	0xbd01752c	-0.031605884
57	0xbe9a31b0	-0.30116034
58	0xbd85c4bf	-0.06531667
59	0x3d82a3a7	0.063788705
60	0xbe07a279	-0.13245572
61	0x3d4d8a28	0.050180584
62	0xbe2905fc	-0.16506189
63	0xbcf94f85	-0.030433426
64	0x3db18cd9	0.08669443
65	0xbe2e9771	-0.17049958
66	0xbd1d1219	-0.038347337
67	0x3d746425	0.059665818
68	0x3c812e60	0.015769184
69	0x3b27d6e4	0.0025610263
70	0x3dff63ed	0.12470231
71	0x3d86e0bc	0.065858334
72	0xbba400a4	-0.005004959
73	0x3e235e81	0.15954019
74	0x3df11663	0.11771848
75	0x3e1da0b9	0.15393342
76	0x3d93eee4	0.07223299
77	0xbd201924	-0.039086476
78	0xbd690cf4	-0.05689712
79	0x3d87ff7d	0.066405274
80	0xbda212f1	-0.07913769
81	0x3d607285	0.054796714
82	0x3da43453	0.080177926
83	0xbd2e143b	-0.042499762
84	0xbca90b2a	-0.020635206
85	0xbd597293	-0.053087782
86	0x3b3df357	0.0028984153
87	0x3d6e410e	0.05816751
88	0x3dc55344	0.09635022
89	0x3d688347	0.05676582
90	0xbccc0eec	-0.024909459
91	0x3d818163	0.06323507
92	0x3dc41068	0.09573442
93	0x3d36ec3f	0.044658896
94	0xbc15afb7	-0.009136132
95	0x3da7af61	0.08187748
96	0x3cb1d5e3	0.021708434
97	0xbcc2a769	-0.023761468
98	0xbb470ed5	-0.003037383
99	0xbb2ca60a	-0.0026344084
100	0x3c660238	0.014038615
101	0x3d055eca	0.0325611
102	0x3e1fa77c	0.15591234
103	0x3d79cf9c	0.060989007
104	0xbd8a4723	-0.067518495
105	0xbd46788f	-0.048454817
106	0xbe4aa11f	-0.19788025
107	0xbeba375c	-0.3637036
108	0xbe98b6ab	-0.29826865
109	0x3d51bfa9	0.051208172
110	0xbe60828f	-0.21924804
111	0xbebaa354	-0.36452734
112	0xbecad5e7	-0.3961632
113	0xbf07062e	-0.52743804
114	0xbe23523f	-0.15949343
115	0xbdbb90a6	-0.09158449
116	0xbdc7fc2b	-0.09764894
117	0xbe43a186	-0.19104585
118	0xbe909721	-0.28240302
119	0xbec2409e	-0.37939924
120	0x3d591978	0.053002805
121	0x3e073153	0.1320241
122	0x3e2a26ff	0.16616438
123	0x3e335c91	0.1751578
124	0xbcda6c15	-0.026662866
125	0x3e164c6f	0.14677595
126	0xbd6b90b4	-0.057511047
127	0xbe0c64e0	-0.13710356
128	0xbd282ba4	-0.041057244
129	0x3e22826c	0.15870064
130	0x3d9e1505	0.07718853
131	0x3e433483	0.19063
132	0x3d8f25d3	0.06989636
133	0xbcc3e985	-0.023915062
134	0x3dd741ea	0.10510619
135	0xbcc2d509	-0.023783224
136	0x3e2de60d	0.16982289
137	0x3e9ed6ad	0.3102316
138	0x3de10a0f	0.10988247
139	0x3c35a55b	0.011086787
140	0xbe147b9c	-0.14500278
141	0xbddda281	-0.10822011
142	0x3db98519	0.090585895
143	0x3d88fafa	0.06688495
144	0xbd41c262	-0.04730452
145	0xbe336f06	-0.17522821
146	0xbe21f88a	-0.15817466
147	0xbe124e50	-0.14287686
148	0xbe3b061b	-0.18264048
149	0xbda8f4ea	-0.08249839
150	0xbe878ec5	-0.26476112
151	0xbe7200b8	-0.23633087
152	0xbe58a319	-0.21155967
153	0xbe7d154b	-0.24715154
154	0xbe1e555f	-0.15462254
155	0xbe81045b	-0.25198635
156	0xbe00e14c	-0.12585944
157	0xbc47516b	-0.012165408
158	0xbd20f4ab	-0.039295834
159	0xba439ce4	-0.0007462038
160	0xbdcd8d6a	-0.10036738
161	0xbd7e6b30	-0.06211394
162	0x3d9f8c08	0.07790381
163	0x3ddcc700	0.10780144
164	0x3dbc9641	0.09208346
165	0xbe09b83d	-0.13449188
166	0xbdd55486	-0.10416512
167	0x3dee3aba	0.11632295
168	0x3e5de2b9	0.21668519
169	0x3e60e679	0.21962918
170	0xbed08979	-0.40729883
171	0xbdc2b5cf	-0.095073335
172	0x3e07c592	0.13258961
173	0x3d6c714e	0.057725243
174	0x3dd38de4	0.10329798
175	0xbdce0eaf	-0.100613944
176	0xbea3cd33	-0.31992492
177	0xbe2d25ff	-0.16909026
178	0x3d6ff5b4	0.05858393
179	0x3dff04aa	0.124520615
180	0x3dc2de7d	0.095150925
181	0xbcf27438	-0.029596433
182	0xbe3c6f3d	-0.18401809
183	0xbeaa2bc7	-0.33236524
184	0xbdaa6d74	-0.08321658
185	0xbe4af4d4	-0.19819957
186	0x3dd300e6	0.10302906
187	0x3dd1ab33	0.10237732
188	0x3daa6072	0.08319177
189	0xbd19a18f	-0.03750759
190	0xbdb2c3fc	-0.08728787
191	0xbcec0883	-0.028812652
192	0x3d7dd4cd	0.06197052
193	0x3ccacf96	0.024757188
194	0x3ba69284	0.005083384
195	0xbd8aa4e1	-0.067697294
196	0x3da5910a	0.08084305
197	0x3dfe2c91	0.12410844
198	0x3d98f319	0.07468242
199	0x3bdc2cc2	0.0067192027
200	0x3d901ef8	0.07037157
201	0xbd86bb7e	-0.0657873
202	0xbdb829e1	-0.08992363
203	0xbd8403f0	-0.064460635
204	0x3c190d72	0.0093415845
205	0x3db514bf	0.08841848
206	0x3bf33df9	0.007423159
207	0xbc1b5a4d	-0.009481979
208	0xbe263b99	-0.16233672
209	0xbe08dee4	-0.13366276
210	0xbd8ca645	-0.06867651
211	0x3d1d7d2f	0.038449463
212	0x3c8e7d74	0.017393805
213	0xbd7c1139	-0.061539862
214	0x3d46169d	0.04836141
215	0xbe29765f	-0.16549061
216	0xbdaa6373	-0.0831975
217	0x3c93a15d	0.01802128
218	0x3d73c354	0.05951245
219	0x3d4f895b	0.0506681
220	0xbd3e0fd5	-0.046401817
221	0x3e0b4e92	0.13604191
222	0x3e175237	0.14777456
223	0x3d6ff731	0.05858535
224	0xbb885cc9	-0.0041614515
225	0xbca7c994	-0.020481862
226	0x3ca2892f	0.019840805
227	0xbd55a855	-0.052162487
228	0xbe0a9f36	-0.13537297
229	0x3ad2f34a	0.0016094234
230	0xbe0034e7	-0.1252018
231	0x3d258b10	0.040415823
232	0xbcf5ccc1	-0.03000486
233	0xbd630a06	-0.05542948
234	0xbe1407ac	-0.14456052
235	0xbdc04460	-0.093880415
236	0xbd855f65	-0.06512336
237	0x3d540589	0.05176309
238	0x3c90bd09	0.017668264
239	0xbd9fd33f	-0.07803964
240	0xbe14553a	-0.14485636
241	0xbda886eb	-0.082288586
242	0xbcaf8229	-0.02142437
243	0x3dcf46bf	0.101209156
244	0x3cbb882f	0.022892086
245	0xbe1c6d97	-0.1527618
246	0x3b9fd312	0.0048774565
247	0x3ccac611	0.024752649
248	0x3d81d431	0.063393004
249	0xbb56c434	-0.0032770755
250	0xbcd607d8	-0.026126787
251	0xbe154e25	-0.14580591
252	0xbd4c59d8	-0.04989037
253	0xbb6ab78c	-0.003581497
254	0xbe321e9d	-0.1739449
255	0xbdb45390	-0.08805001

feature_extractor.3.bias f4 [20]
0	0x3d47a65d	0.04874264
1	0xbe11394e	-0.14182016
2	0xbd3b0cf4	-0.04566665
3	0x3b4068ea	0.0029359409
4	0xbde1cdd9	-0.110255904
5	0x3e2f2b8b	0.17106454
6	0x3d664f50	0.056227982
7	0xbdebfda0	-0.115229845
8	0x3e31c53e	0.17360398
9	0xbe2cbfd0	-0.16870046
10	0x3e4ea859	0.20181407
11	0x3df420c1	0.1192031
12	0xbe0fe35a	-0.14051571
13	0xbdc90cf7	-0.09816926
14	0xbe81fa16	-0.25386113
15	0x3cc1a52b	0.023638329
16	0x3db7f9cf	0.08983194
17	0x3e117988	0.14206517
18	0xbdaab676	-0.08335583
19	0xbe86708d	-0.26257744

classifier.0.weight f4 [50, 320]
0	0x3c63f398	0.013913058
1	0x3d732d43	0.059369337
2	0x3ddf1284	0.108922035
3	0x3e712bb4	0.23551828
4	0x3e33861b	0.17531626
5	0x3e00bc0e	0.12571737
6	0x3dc174ba	0.09446092
7	0x3c858390	0.016298085
8	0x3da5ee1f	0.081020586
9	0x3cb9a589	0.022661941
10	0xbe56a410	-0.20961022
11	0xbdb56da8	-0.08858806
12	0x3e0facbf	0.14030741
13	0x3d922e43	0.0713773
14	0xbe19e3c8	-0.15028298
15	0xbc7db300	-0.015484571
16	0xbc9c73a7	-0.019098116
17	0x3d3be8de	0.045876376
18	0xbe6a82ac	-0.2290141
19	0xbe16b2a6	-0.14716586
20	0x3daf3554	0.085550934
21	0x3c787ce8	0.015166499
22	0x3d01e0fa	0.031708695
23	0xbd846645	-0.06464819
24	0x3dbab2eb	0.09116157
25	0xbc3d321c	-0.011547592
26	0x3d60f3df	0.054920074
27	0x3dcc7e87	0.09985071
28	0x3e134cac	0.14384717
29	0x3bcf6eaf	0.006330333
30	0x3dc34af4	0.095357805
31	0x3c754736	0.014970591
32	0x3bb9f779	0.005675253
33	0xbd56146e	-0.052265577
34	0xbda9f0ba	-0.08297868
35	0xbe2b5dd8	-0.16735017
36	0x3d4b3315	0.049609262
37	0xbd00d1c6	-0.031450056
38	0x3c4ee5bc	0.012628015
39	0x3e6f4bfe	0.23368832
40	0x3e231b89	0.15928473
41	0x3c9103db	0.017702034
42	0xbcab9d13	-0.020948922
43	0xbcd72cfc	-0.026266567
44	0x3e66633f	0.22498797
45	0x3c01ab40	0.007914364
46	0x3d6164be	0.055027716
47	0x3d405fb2	0.046966262
48	0x3da4c508	0.08045393
49	0x3c2c3c60	0.010512441
50	0x3c334c30	0.0109434575
51	0xbe1cffa6	-0.15331897
52	0xbe3a621d	-0.1820149
53	0x3be3c6ce	0.0069511896
54	0xbda09a42	-0.07841922
55	0xbe068afe	-0.13138959
56	0xbe24cd44	-0.16093928
57	0x3dbac1fd	0.091190316
58	0x3d5d131e	0.05397331
59	0xbd253ab5	-0.04033919
60	0xbdadb8ee	-0.08482538
61	0x3d830b4b	0.06398638
62	0x3e0e688c	0.13907069
63	0x3e1aff2b	0.15136401
64	0x3d007bf1	0.0313682
65	0xbcfd2fe5	-0.030906627
66	0xbd579438	-0.052631587
67	0xbd66aa4f	-0.056314763
68	0xbd21f764	-0.03954257
69	0x3e2b773b	0.16744702
70	0xbd29f67f	-0.041494843
71	0xbe8aafa3	-0.27087125
72	0xbd33953b	-0.04384349
73	0x3d6a2416	0.05716332
74	0x3ca9d2ad	0.02073034
75	0xbd8f1f7b	-0.06988426
76	0x3d42b22d	0.047533203
77	0x3da28ed9	0.07937402
78	0x3dd97780	0.10618496
79	0x3de28c66	0.11061935
80	0xbe49cbe8	-0.1970669
81	0x3d45383b	0.04814933
82	0x3e82c16e	0.255382
83	0xbb6df397	-0.003630852
84	0xbd9f1149	-0.07766969
85	0x3b44b7e6	0.0030016839
86	0xbcd8cbde	-0.026464399
87	0x3ab4bc72	0.0013789071
88	0xbcdd0aad	-0.02698263
89	0xbdadeda9	-0.08492596
90	0xbd884707	-0.066541724
91	0xbc8113e1	-0.01575655
92	0xbdf74ece	-0.12075578
93	0xbda8a7e1	-0.08235145
94	0x3c4ab238	0.012371592
95	0xbd02365f	-0.031790134
96	0x3e5080f0	0.20361686
97	0x3da2f292	0.07956423
98	0x3c7c4e11	0.015399472
99	0x3cd1dc08	0.025617614
100	0x3c6a99d0	0.014318898
101	0x3d0fe8a4	0.035133973
102	0x3c4acc6b	0.012377839
103	0x3c2e1064	0.010624025
104	0xbcc62d49	-0.024191516
105	0xbc8b3277	-0.016991837
106	0xbe42d72d	-0.19027396
107	0xbdda483b	-0.10658308
108	0xbc373337	-0.011181644
109	0x3dc44585	0.09583572
110	0xbd889570	-0.06669128
111	0xbde77185	-0.11300949
112	0xbdeb6a1b	-0.114948474
113	0xbccfded9	-0.025374817
114	0x3c0658d0	0.0081998855
115	0xbe6a9a77	-0.22910486
116	0x3d8385a9	0.06421978
117	0xbd7c3214	-0.061571196
118	0xbdb5d3f0	-0.088783145
119	0x3cf0a593	0.029375827
120	0xbd30530d	-0.043047953
121	0xbd7ea814	-0.06217201
122	0x3d8662b0	0.06561792
123	0x3dcb1ac5	0.09917215
124	0xbc08f7fc	-0.008359905
125	0xbe3b18b3	-0.18271141
126	0xbd728919	-0.059212778
127	0xbd7f40e7	-0.062317755
128	0xbdf78dfc	-0.12087628
129	0x3da5bb84	0.080924064
130	0x3e4d247f	0.20033453
131	0x3daf7912	0.08568014
132	0xbdc163c5	-0.09442858
133	0x3c93cf9f	0.018043337
134	0xbd086497	-0.033299055
135	0xbd36fb34	-0.04467316
136	0x3c30b6dc	0.010785785
137	0xbd265354	-0.04060681
138	0xbd45939a	-0.048236467
139	0xbe21d619	-0.15804328
140	0xbd6364d0	-0.055516064
141	0xbdc9eb8d	-0.09859381
142	0xbdffc3ca	-0.12488516
143	0xbe0ebb51	-0.13938643
144	0xbe2a712e	-0.16644737
145	0xbe387071	-0.18011643
146	0xbdaea190	-0.08526909
147	0xba9e2c51	-0.0012067651
148	0x3d61e17d	0.055146683
149	0x3d993d93	0.074824475
150	0x3d5d70d7	0.05406269
151	0x3e453470	0.19258285
152	0x3db67079	0.08908171
153	0x3d2c88d6	0.042122684
154	0x3bf1aa80	0.0073750615
155	0x3d63c55d	0.055608142
156	0x3daa1cb9	0.0830626
157	0xbd55d2ab	-0.05220286
158	0xbdaabda7	-0.083369546
159	0xbdbd0e3c	-0.092312306
160	0xbdbba1dc	-0.091617316
161	0x3d4c80c3	0.049927484
162	0x3dfa71c6	0.12228732
163	0x3dc80737	0.09767001
164	0x39dfe70d	0.0004270602
165	0xbdde6660	-0.1085937
166	0xbdd92a42	-0.10603763
167	0xbdbcb0c8	-0.09213406
168	0xbc06e82e	-0.008234067
169	0xbdd42c30	-0.103599906
170	0x3c1d1ce7	0.00958941
171	0x3c819332	0.015817259
172	0xbdd6ed2e	-0.10494457
173	0xbe07eaee	-0.13273212
174	0xbb9f8a9e	-0.0048688194
175	0xbdb5306d	-0.08847127
176	0x3d7f5c79	0.06234405
177	0x3d43495c	0.047677383
178	0x3da503c6	0.0805736
179	0x3e1582a9	0.14600624
180	0x3d3475e5	0.044057745
181	0x3dc11543	0.094278835
182	0x3ccb9ad8	0.024854109
183	0x3c9724e3	0.018450206
184	0x3d5a0277	0.053225007
185	0xbca4b137	-0.020104034
186	0xbdea6acd	-0.11446152
187	0xbdcfe91f	-0.10151886
188	0xbd74348a	-0.059620418
189	0x3d0251cb	0.031816285
190	0xbdf62f09	-0.1202069
191	0x3d22a204	0.03970529
192	0x3c18ec84	0.0093337335
193	0xbdd97b94	-0.10619274
194	0xbc43fa77	-0.011961571
195	0x3c8e5e74	0.017379023
196	0xbe4b25f4	-0.19838697
197	0xbd9474fe	-0.07248877
198	0xbe202746	-0.15639982
199	0xbdb9c82c	-0.09071383
200	0xbe10c5f2	-0.1413801
201	0x3aa35d75	0.0012463765
202	0x3cc49ff6	0.024002057
203	0xbd55153f	-0.052022215
204	0xbe3a4289	-0.18189444
205	0x3cd2a937	0.025715454
206	0xbc115a06	-0.008871561
207	0x3d23f9d0	0.04003316
208	0x3dda61c4	0.106631786
209	0x3d47471f	0.04865181
210	0xbdcaefcc	-0.09909019
211	0xbdda0ff8	-0.10647577
212	0xbde007eb	-0.1093901
213	0xbcf272bf	-0.02959573
214	0xbc3e5665	-0.011617278
215	0xbd4e4a05	-0.05036356
216	0xbdbfa636	-0.09357874
217	0x3ce0a059	0.02742021
218	0x3a031cc4	0.000500154
219	0xbdb05663	-0.08610227
220	0xbddf350e	-0.10898791
221	0x3c9fcba9	0.019506292
222	0x3ddedfd1	0.10882533
223	0xbce2053e	-0.02759039
224	0x3b318334	0.002708626
225	0xbcd8f5f0	-0.02648446
226	0xbda260e7	-0.07928639
227	0xbd0fa188	-0.035066158
228	0x3e04823f	0.1294031
229	0xbc18d4b9	-0.009328061
230	0xbd6445aa	-0.0557305
231	0x3d83acfd	0.06429479
232	0xbd6ac652	-0.05731804
233	0xbdf86e6e	-0.12130438
234	0x3dabaa7d	0.083821274
235	0x3d827dab	0.063716255
236	0x3d809a92	0.06279482
237	0x3db9902f	0.09060704
238	0x3c2fe415	0.010735531
239	0x3e484e90	0.19561219
240	0x3dd0b90b	0.10191544
241	0x3db4a38f	0.08820259
242	0xbd0ce3df	-0.034397002
243	0xbd5864fc	-0.05283068
244	0xbdea09e1	-0.114276655
245	0xbbe6180c	-0.0070219096
246	0xbda403af	-0.08008515
247	0xb9897e6a	-0.00026224862
248	0xbd854e11	-0.065090306
249	0xbca9858d	-0.020693565
250	0xbc315014	-0.010822315
251	0xbd1e737d	-0.038684357
252	0xbe2876dc	-0.16451591
253	0x3c31a1ea	0.010841826
254	0x3ca1ffb3	0.019775247
255	0xbd4a3cea	-0.0493745

classifier.0.bias f4 [50]
0	0xbc2600c2	-0.010132017
1	0xbe520ef2	-0.20513514
2	0x3d67081b	0.056404214
3	0x3e1d10df	0.15338467
4	0x3c122d21	0.008921892
5	0x3e1bf3e6	0.15229759
6	0x3dc7f209	0.097629614
7	0x3de61d6f	0.11236083
8	0x3e1044ec	0.14088792
9	0x3d135ca2	0.035977013
10	0xbaa67714	-0.0012700283
11	0x3e264abd	0.16239448
12	0x3e8949d6	0.26814145
13	0xbdad335f	-0.08457064
14	0xbddc22dd	-0.10748837
15	0x3dc874c7	0.097878985
16	0x3e6823b3	0.22669868
17	0x3e8d3c35	0.27584997
18	0x3d39de7a	0.045378186
19	0x3e451bea	0.1924893
20	0x3e849289	0.25893047
21	0x3e123056	0.14276251
22	0x3e4d1745	0.20028408
23	0x3da61c3f	0.08110856
24	0x3dbea133	0.0930809
25	0x3d88e352	0.06683983
26	0x3df297a6	0.11845331
27	0xbe34f2c9	-0.1767074
28	0x3e4bcabb	0.19901554
29	0x3e5fb88f	0.21847747
30	0xbc559657	-0.013036332
31	0x3dc05b82	0.09392454
32	0xbe0cc8aa	-0.13748422
33	0x3e5dbca0	0.21653986
34	0x3dd38218	0.10327548
35	0x3e83d99d	0.25751963
36	0x3e110c87	0.14164935
37	0x3dc108e1	0.09425522
38	0x3e6fa4a6	0.23402652
39	0xbd54e54e	-0.051976494
40	0x3e7e5c64	0.24839932
41	0xbc95916b	-0.018257817
42	0x3e2d89f5	0.16947158
43	0x3eaa1e49	0.3322623
44	0xbdb5038e	-0.08838569
45	0xbbffa135	-0.0078012
46	0x3d37a1fb	0.04483221
47	0x3c544a9d	0.012957242
48	0x3d9617e6	0.07328777
49	0x3e63778d	0.22213574

classifier.3.weight f4 [10, 50]
0	0x3e27b0fc	0.16376108
1	0xbe92b448	-0.2865317
2	0xbea91f30	-0.33031607
3	0xbeb9f4ba	-0.36319524
4	0x3cd20df3	0.025641417
5	0xbe0664b8	-0.13124359
6	0xbec387f9	-0.38189676
7	0x3de05e6a	0.10955508
8	0x3e1ecda9	0.1550814
9	0xbd968c82	-0.073510185
10	0xbebc839e	-0.36819166
11	0x3db54870	0.08851707
12	0xbef447cf	-0.47711036
13	0x3d8761b0	0.06610429
14	0xbe080eea	-0.1328694
15	0x3dec016e	0.1152371
16	0x3e2c2c02	0.16813663
17	0x3e04048d	0.12892361
18	0xbe6e828d	-0.23291989
19	0x3e3f49d4	0.18680507
20	0xbea33178	-0.3187368
21	0x3e07e0a3	0.13269286
22	0x3d852b92	0.06502451
23	0x3d853da3	0.06505897
24	0xbe76e8bc	-0.24112219
25	0xbeaf0809	-0.34185818
26	0x3e5e520e	0.21710989
27	0xbea37620	-0.3192606
28	0xbe6dbcd5	-0.23216565
29	0xbe778d97	-0.24175106
30	0x3d88d944	0.06682065
31	0x3e210061	0.15722801
32	0xbe9d6b64	-0.30745995
33	0x3e427ca2	0.18992856
34	0xbdcf7f27	-0.10131674
35	0x3cd8ccdb	0.02646487
36	0xbe7febb0	-0.24992251
37	0xbe98b340	-0.29824257
38	0x3def1ff6	0.11676018
39	0xbe67a4c8	-0.22621453
40	0x3d4f2607	0.050573375
41	0xbd334b6a	-0.043773092
42	0xbee0c085	-0.4389688
43	0xbed86b27	-0.4226925
44	0x3d733849	0.05937985
45	0xbecf1ccc	-0.40451658
46	0xbec3ff71	-0.38280824
47	0x3d6a38de	0.05718314
48	0x3df46385	0.11933044
49	0xbda3f283	-0.0800524
50	0xbe3917e0	-0.18075514
51	0x3e139094	0.14410621
52	0x3e113f41	0.14184286
53	0xbd684843	-0.05670954
54	0xbea7310e	-0.32654613
55	0x3e203dda	0.15648594
56	0x3e123006	0.14276132
57	0xbeb4f75c	-0.3534497
58	0xbdb58885	-0.0886393
59	0x3d99801a	0.074951366
60	0x3d8bcfc1	0.06826735
61	0x3e4cdbe8	0.20005763
62	0x3a91dfd7	0.0011129332
63	0xbef85769	-0.4850419
64	0xbede4d11	-0.43418172
65	0xbe79fbfa	-0.24412528
66	0x3e15bfa2	0.14623883
67	0xbeefa8de	-0.46808523
68	0x3e1fdf87	0.15612613
69	0xbeaa5555	-0.33268228
70	0x3e37de34	0.17955858
71	0xbe1e9bc7	-0.15489112
72	0xbf066b1d	-0.5250719
73	0xbe5b0349	-0.21387972
74	0xbe7c839f	-0.24659584
75	0x3e3f8209	0.18701948
76	0x3e83f785	0.2577478
77	0xbe31e132	-0.17371061
78	0x3da7683d	0.08174179
79	0x3e39deba	0.1815137
80	0xbe44cdd3	-0.1921914
81	0xbea6a66d	-0.32548848
82	0xbe6e838e	-0.23292372
83	0x3e06c56f	0.13161252
84	0x3dede748	0.11616379
85	0x3e1c74a5	0.15278871
86	0xbe38b491	-0.1803763
87	0xbdb76816	-0.089554
88	0x3d936e5b	0.07198783
89	0xbd821acb	-0.063527666
90	0xbe81659f	-0.25272843
91	0x3e91f2b7	0.2850549
92	0xbd86a23a	-0.06573911
93	0x3d6a2aa8	0.057169586
94	0x3cd0c54f	0.02548471
95	0x3e036662	0.12832025
96	0xbe1a5a99	-0.15073623
97	0xbd3d2235	-0.0461752
98	0xbe915603	-0.28385934
99	0x3e288742	0.16457847
100	0xbd1b8b22	-0.037974484
101	0xbe5cdbfb	-0.21568291
102	0xbe400728	-0.1875273
103	0xbe081347	-0.13288604
104	0x3d801a02	0.062549606
105	0xbdec5f90	-0.115416646
106	0x3e022bfb	0.1271209
107	0xbe17bcf4	-0.14818174
108	0x3df4a0fa	0.11944766
109	0x3e202af7	0.1564139
110	0xbeb42cef	-0.35190532
111	0xbe0ec505	-0.13942344
112	0x3d122625	0.03568091
113	0xbe18fb6e	-0.14939663
114	0x3da89cf1	0.08233059
115	0x3da7c849	0.08192498
116	0xbcbceaf8	-0.02306126
117	0x3dba6b14	0.09102455
118	0x3def4127	0.11682349
119	0xbe4da597	-0.20082699
120	0xbd8a7d51	-0.067621835
121	0x3de22d28	0.11043769
122	0xbe8c6036	-0.27417153
123	0x3dc0644b	0.09394129
124	0x3e0a1125	0.13483103
125	0x3e42d092	0.19024876
126	0xbe5afdbf	-0.21385859
127	0xbe0939d5	-0.13400967
128	0x3e0887cf	0.13333057
129	0xbe5261ea	-0.20545164
130	0x3d521417	0.05128869
131	0xbe6b2977	-0.22965036
132	0xbd21d405	-0.03950884
133	0xbdb51dbe	-0.088435635
134	0xbeb80e53	-0.3594843
135	0x3e1b32cd	0.15156098
136	0xbe25a557	-0.16176353
137	0x3e085b6d	0.13316126
138	0x3dfe4ce7	0.12417012
139	0xbe0d7eed	-0.1381795
140	0x3c955fe0	0.018234193
141	0x3e7157a3	0.23568587
142	0xbd8bb137	-0.068209104
143	0xbe6c92e5	-0.23102911
144	0xbe63be75	-0.22240622
145	0xbe3d1b03	-0.18467335
146	0x3db64bf3	0.08901205
147	0x3db066e1	0.086133726
148	0xbe21664c	-0.1576168
149	0x3e105ede	0.14098689
150	0xbd96ce70	-0.073635936
151	0x3e287ad3	0.16453104
152	0x3db229d4	0.08699384
153	0x3e1a793c	0.1508531
154	0x3dcd98b4	0.100388914
155	0xbe4efbee	-0.20213291
156	0x3e0188f8	0.12649906
157	0xbdb6f4d9	-0.0893342
158	0x3dd0ced2	0.10195698
159	0x3e16a4f9	0.1471137
160	0x3dbad49c	0.09122583
161	0xbec436e5	-0.3832313
162	0x3d1aaf85	0.037765045
163	0x3dcbc55a	0.09949751
164	0x3d020c46	0.031749986
165	0xbe50a26f	-0.20374463
166	0x3dea29d0	0.11433756
167	0xbe529399	-0.20564117
168	0x3e119e49	0.14220537
169	0xbe594641	-0.21218206
170	0xbe5b1699	-0.21395339
171	0x3dc54fe3	0.09634378
172	0xbe4f62f2	-0.20252588
173	0xbe813f86	-0.25243777
174	0x3e3a0579	0.1816615
175	0xbd8cd17a	-0.06875892
176	0xbe7aa394	-0.24476463
177	0x3e31a114	0.17346603
178	0x3caa7882	0.020809416
179	0xbe1aa321	-0.15101291
180	0xbe3d73a8	-0.1850115
181	0xbeaad3b7	-0.3336465
182	0x3e2d8a00	0.16947174
183	0xbed64027	-0.4184582
184	0xbe9d0cdf	-0.30673882
185	0x3e295182	0.16534999
186	0xbe6384f1	-0.22218682
187	0xbe05c009	-0.13061537
188	0xbcad96e6	-0.021190118
189	0xbda86a9e	-0.082234606
190	0x3ce82b8a	0.028341074
191	0xbe4c6549	-0.19960512
192	0x3d21d900	0.039513588
193	0xbdae5a47	-0.08513313
194	0x3b11a7b6	0.0022225208
195	0xbe833169	-0.25623634
196	0x3dc8ce21	0.09804941
197	0xbe573880	-0.21017647
198	0x3e1973a9	0.14985527
199	0xbe8ab255	-0.27089182
200	0xbe78815f	-0.24268101
201	0xbc4ef1ea	-0.012630919
202	0x3e1eff84	0.15527159
203	0x3df07a7f	0.11742114
204	0x3e065cf9	0.13121404
205	0x3e28e587	0.16493808
206	0xbde919d7	-0.11381882
207	0xbe9d6854	-0.3074366
208	0xbd31a41e	-0.043369405
209	0xbe7cf48d	-0.24702664
210	0x3d8f861b	0.070080005
211	0x3e579d1d	0.21056028
212	0xbe9be6bb	-0.3044947
213	0xbea70d97	-0.32627556
214	0x3db89f61	0.09014774
215	0x3def544a	0.11685999
216	0xbe08f6e4	-0.13375431
217	0xbeacb26c	-0.33729875
218	0x3c97f919	0.018551396
219	0xbe370c34	-0.17875749
220	0x3e329d92	0.17442921
221	0xbe215810	-0.1575625
222	0x3d98f75b	0.07469054
223	0x3e0cc520	0.13747072
224	0x3e1833f0	0.14863563
225	0xbe15372f	-0.14571832
226	0xbe6c1f3d	-0.23058791
227	0xbec6514b	-0.38733897
228	0xbdb16bd5	-0.086631455
229	0x3dd8a916	0.105791256
230	0x3d7bcf3c	0.06147693
231	0xba85aee1	-0.0010199213
232	0xbe24361e	-0.16036269
233	0xbdd843c3	-0.105597995
234	0xbdb8343d	-0.08994339
235	0xbede5888	-0.4342692
236	0x3db430f2	0.08798398
237	0xbe865812	-0.26239067
238	0xbea42ab1	-0.3206382
239	0x3e4b0eed	0.19829912
240	0xbedbaa82	-0.42903525
241	0xbde07446	-0.109596774
242	0x3e374b50	0.17899823
243	0x3df38c38	0.11891979
244	0xbe81f69d	-0.25383464
245	0x3e0b143f	0.13581942
246	0xbe811a44	-0.25215352
247	0x3e13ec32	0.1444557
248	0xbe709a95	-0.23496468
249	0x3e3042df	0.1721301
250	0xbdc53449	-0.09629113
251	0x3e234eea	0.15948072
252	0xbdfdf7ef	-0.12400805
253	0x3e04573c	0.12923902
254	0x3d95bf6a	0.073119
255	0xbe11d45b	-0.14241163

classifier.3.bias f4 [10]
0	0x3e4e6e63	0.20159297
1	0x3cb98355	0.022645632
2	0xbe18df95	-0.1492904
3	0xbdcaf306	-0.09909634
4	0x3d59010b	0.05297951
5	0xbe8a019e	-0.2695436
6	0xbdcfe4f8	-0.10151094
7	0xbd03acdb	-0.03214727
8	0x3e13ddac	0.1444003
9	0x3e87c66e	0.26518577
